07_13_22_day7_deep_learning_and_LFADS/code/solutions/pretrained_rnn.ckpt (torch, 320943 bytes, 18 tensors)

rnn.weight_ih_l0 f4 [120, 122]
-0.093592875 0.059047274 -0.0034201476 -0.2056469 -0.06875636 0.10451093 -0.010794932 -0.098172784
-0.0663231 0.20293409 -0.26755264 -0.20018438 -0.16401705 0.04876131 0.060075786 0.2854723
0.029829856 -0.2535512 0.102053866 -0.26277497 0.061629735 0.16038348 0.111058734 0.20310125
-0.020620849 -0.038519382 -0.102996804 0.059545867 0.11302102 0.21746066 -0.056884423 -0.059686147
0.024060093 0.16536935 0.09092044 -0.018449176 0.22068386 -0.19641033 0.079700336 0.008597061
-0.01802095 -0.09726211 0.29917464 0.020359047 0.13896573 0.062107917 0.121713206 -0.1577181
-0.14254309 -0.06343617 -0.09696004 0.0037016645 -0.005827536 -0.0022819524 0.08073258 0.033282362
-0.03162911 -0.11806646 -0.038299162 -0.10842761 0.025122432 -0.012280382 -0.014436711 -0.23119065
-0.33360264 -0.081671685 0.25598064 0.053088997 0.012596593 -0.20039001 0.18191798 0.057356358
-0.2347988 0.00143864 0.25965557 0.041705526 -0.13686487 0.21366605 0.08460638 -0.02670584
-0.29591805 -0.050452974 -0.035715755 0.006752085 0.08505489 0.12954514 -0.12896743 0.28476924
-0.0995007 -0.03137145 0.14461826 0.0010813896 -0.22258976 -0.018590143 0.006881038 -0.08944246
-0.31253022 0.12782754 0.07092711 0.02885947 0.089004435 -0.05252091 -0.087481536 0.1301724
0.06346317 0.24150866 -0.042665616 -0.10416414 0.13297895 0.05429276 0.01146212 0.16954479
0.017941447 -0.035023484 -0.13903008 0.042552017 0.21452257 0.08059304 0.06314808 -0.016959686
-0.21736611 -0.12021525 0.1651978 -0.047200955 -0.0814959 0.17546657 -0.071287446 0.11724209
0.24435602 -0.29280758 0.033587992 0.17618452 0.015424367 0.05903404 -0.10130888 -0.045898266
0.016891062 0.14964017 0.057336412 -0.0107587725 -0.05511718 -0.14968467 -0.04147589 -0.22003938
-0.007400316 0.06848625 0.030762957 0.08128934 -0.021575999 0.10065054 0.1119161 -0.066353925
-0.055101342 0.2927745 0.099189796 -0.120380834 -0.058271926 0.104618214 0.10314551 0.026821833
-0.026922964 -0.022031197 0.054105807 0.06424843 0.022519553 0.10819669 0.18549153 -0.08392703
-0.02725429 -0.099403776 0.06710361 -0.03840008 -0.21302076 -0.11622363 -0.028963024 0.064758256
-0.1211363 0.13840784 -0.28180903 0.16763967 -0.28675497 -0.025052033 0.0012720346 0.03637846
0.010321176 -0.044941872 0.09463142 0.012903102 -0.02749918 -0.2288678 -0.0028825584 -0.00822876
-0.015251336 -0.014894584 0.11321046 -0.07539727 -0.0031228766 0.10319191 0.009399867 -0.029069755
-0.10287057 0.015897023 0.11653459 0.031289194 -0.18895215 -0.07981842 0.11136506 -0.022934213
-0.036175642 -0.06580904 0.13624482 -0.16157323 0.04517314 0.14070955 -0.012702057 -0.009000206
0.095683284 0.015132487 0.021691674 0.16328944 -0.09673277 -0.06974312 -0.2861554 -0.16248503
-0.21153355 0.08966227 0.04528097 -0.21103235 0.074121095 0.06212636 -0.03408325 -0.086637415
0.05158178 -0.17700393 -0.048807222 -0.04223852 0.051959492 -0.06446888 -0.069889165 -0.030572362
0.077127546 -0.04725465 -0.055217937 0.106571995 -0.062647924 0.018255627 0.20475544 -0.06763103
-0.04317003 -0.06452803 -0.29332474 -0.094334856 -0.004291716 -0.02816725 -0.18053316 0.14556687
00000000: 9fad bfbd 8edb 713d 8e24 60bb 1a95 52be
00000010: 22d0 8cbd d409 d63d 3add 30bc d00e c9bd
00000020: 68d4 87bd f4cd 4f3e a9fc 88be 22fd 4cbe
00000030: 16f4 27be f0b9 473d 0712 763d 6d29 923e
00000040: be5d f43c 76d1 81be 9e01 d13d 718a 86be
00000050: 766f 7c3d 913b 243e c372 e33d c6f9 4f3e
00000060: 0eed a8bc 80c6 1dbd fdef d2bd 5ee6 733d
00000070: 9177 e73d 02ae 5e3e a4ff 68bd 7679 74bd
00000080: ac19 c53c 9556 293e 7f34 ba3d ba22 97bc
00000090: f3fa 613e ca1f 49be ee39 a33d b0da 0c3c
000000a0: aca0 93bc 5b31 c7bd 6b2d 993e 04c8 a63c
000000b0: 084d 0e3e df64 7e3d c644 f93d db80 21be
000000c0: d1f6 11be d3ea 81bd fc92 c6bd a097 723b
000000d0: eaf4 bebb cf8c 15bb 1f57 a53d 1653 083d
000000e0: 878d 01bd d4cc f1bd 95df 1cbd 4b0f debd
000000f0: 8fcd cd3c a833 49bc f487 6cbc 3ebd 6cbe
00000100: f7cd aabe 7c43 a7bd e50f 833e d973 593d
00000110: f161 4e3c 0a33 4dbe b548 3a3e 80ee 6a3d
00000120: 196f 70be c090 bc3a 93f1 843e 6ad3 2a3d
00000130: 4e26 0cbe 46cb 5a3e 1c46 ad3d 35c6 dabc
00000140: 9282 97be c7a7 4ebd af4a 12bd 9840 dd3b
00000150: 4231 ae3d 7ba7 043e 0a10 04be 46cd 913e
00000160: 06c7 cbbd 597f 00bd cf16 143e 6abd 8d3a
00000170: 92ee 63be 5b4a 98bc 557a e13b 9c2d b7bd
00000180: f603 a0be 39e5 023e 3c42 913d b26a ec3c
00000190: f547 b63d 2a20 57bd 8529 b3bd ea4b 053e
000001a0: faf8 813d 0c4e 773e 24c2 2ebd 0254 d5bd
000001b0: a22b 083e 1662 5e3d 9ecb 3b3c 269d 2d3e
000001c0: f1f9 923c c974 0fbd e75d 0ebe 064b 2e3d
000001d0: ceab 5b3e f70d a53d c853 813d 0aef 8abc
000001e0: 3995 5ebe 6a33 f6bd 9d29 293e ca55 41bd
000001f0: 53e7 a6bd 82ad 333e 27ff 91bd 9f1c f03d
00000200: 7738 7a3e e0ea 95be 9093 093d b769 343e
00000210: 7cb6 7c3c adcd 713d 087b cfbd d2ff 3bbd
00000220: 205f 8a3c 463b 193e 96d9 6a3d 9045 30bc
00000230: 8dc2 61bd f046 19be 9fe2 29bd 0152 61be
00000240: 5a7e f2bb 8542 8c3d 9902 fc3c 077b a63d
00000250: 26c0 b0bc df21 ce3d 4534 e53d 91e4 87bd
00000260: f2b1 61bd 8ae6 953e 0524 cb3d 3a8a f6bd
00000270: 8bae 6ebd 1342 d63d f43d d33d 76b9 db3c
00000280: 8c8d dcbc c57a b4bc 0d9e 5d3d ae94 833d
00000290: ed7a b83c 3a96 dd3d 7ef1 3d3e efe1 abbd
000002a0: 6444 dfbc 3594 cbbd 9e6d 893d 6749 1dbd
000002b0: 1d22 5abe a806 eebd dd43 edbc fa9f 843d
000002c0: 4f16 f8bd c9ba 0d3e 4649 90be bca9 2b3e
000002d0: 8cd1 92be ec39 cdbc 66ba a63a 9401 153d
000002e0: 261a 293c f814 38bd 1ece c13d 8867 533c
000002f0: f645 e1bc 525c 6abe 4ee9 3cbb ecd1 06bc
00000300: bde0 79bc 6a08 74bc e3da e73d e269 9abd
00000310: 2da9 4cbb 4856 d33d e601 1a3c b223 eebc
00000320: cead d2bd 793a 823c b0a9 ee3d 1929 003d
00000330: ac7c 41be d777 a3bd 5d13 e43d 88e0 bbbc
00000340: e92c 14bd e4c6 86bd c383 0b3e 7473 25be
00000350: 7807 393d 2a16 103e 4a1c 50bc 9a75 13bc
00000360: 99f5 c33d 40ee 773c bdb2 b13c 5935 273e
00000370: d51b c6bd 7bd5 8ebd f682 92be 7a62 26be
00000380: 409c 58be daa0 b73d 8a78 393d dd18 58be
00000390: cdcc 973d 3678 7e3d e19a 0bbd f56e b1bd
000003a0: 6b47 533d 8540 35be 15ea 47bd 4c02 2dbd
000003b0: 7ad3 543d 4308 84bd 0d22 8fbd e472 fabc
000003c0: 0cf5 9d3d 188e 41bd 342c 62bd 6b42 da3d
000003d0: 8e4d 80bd d38c 953c 69ab 513e 2382 8abd
000003e0: 0fd3 30bd 4627 84bd a92e 96be a232 c1bd
000003f0: 86a1 8cbb 01bf e6bc afdd 38be 7b0f 153e

rnn.weight_hh_l0 f4 [120, 40]
-0.64827573 0.42950204 -0.09484521 0.3220724 0.059987873 -0.116287336 0.008527545 0.09918663
0.101366654 -0.22011639 0.008037821 -0.007761067 -0.5779729 0.15567665 0.26105043 -0.059950717
-0.5774556 0.46460807 0.0086478675 0.04873282 -0.21114336 -0.41395193 0.25717062 0.8358019
-0.67038876 0.037972797 0.122486606 -0.7453893 -0.36948988 0.26081568 0.19688407 0.51915926
-0.8690501 -0.14210458 -0.2657222 -0.23865704 -0.24188274 -0.20661885 0.73893857 0.34523425
-0.11553336 -0.96185225 0.0024280655 0.485978 0.14776331 0.31886762 -0.58757126 -0.32083756
-0.15905209 0.47777328 0.008037845 0.2345642 -0.27257338 -0.3186847 0.36885864 0.17765392
0.18569171 0.074391425 0.36646366 0.41237342 -0.117924914 -0.026407618 0.18906961 0.21495071
0.36116886 0.39436743 0.107603304 0.31030574 0.097749256 -0.20472287 -0.22783214 -0.24166928
-0.59562373 -0.23998205 0.15531106 -0.41963547 -0.46709636 -0.69453865 -0.57236385 -0.2277116
-0.2581659 -0.21019739 -0.9655992 -0.16583894 0.0010539014 -0.24421214 0.49535865 0.23816714
-0.12034948 -0.4737508 -0.20335725 -0.021975614 -0.7276096 -0.14051814 0.6139685 -0.6963893
-0.17561883 0.41741183 0.2101662 -0.32073572 0.047101483 -0.45037284 0.04284271 -0.26573592
-0.3036907 0.25423416 0.04884779 -0.66776 -0.69218206 -0.20768988 -0.09318351 -0.60122186
-0.14617501 0.1525232 -0.050349955 -0.07323503 0.34406272 0.6471857 0.13850272 -0.11266805
0.29964814 0.41189277 0.1670406 -0.6744757 0.10944816 0.5419264 -0.12677029 0.12553518
-0.6058168 0.14619038 0.00046125753 0.24863991 0.11792506 0.27941808 0.2233282 -0.020269733
-0.042653915 -0.120062314 0.06085313 -0.110484265 0.2605377 0.45212138 0.52815706 0.48410106
0.05502947 -0.03250691 0.39440605 -0.4336924 -0.028421383 0.39561152 0.13419355 -0.02731837
0.076037735 0.17868459 0.26488838 -0.028589444 0.094487794 0.25089934 0.71212894 -0.1809897
0.17229992 -0.2665775 0.49842843 -0.18324956 -0.43296498 -0.20477845 0.28607705 -0.14557503
0.069520086 0.14950691 -0.21883062 0.44995603 -0.1544482 0.07137293 -0.25139654 0.5905016
-0.43796277 -0.031971022 0.34803542 -0.08997763 -0.13473715 -0.65463054 0.16598393 -0.13953876
-0.051963437 -0.08730019 0.218765 0.23123655 0.11579496 -0.14516187 -0.47031134 -0.34407666
0.015575369 0.16392183 0.02333893 -0.376554 -0.042399812 -0.48491642 -0.032812256 0.65748477
0.022294786 -0.069156274 0.6242737 -0.15711518 -0.29091403 -0.45909208 0.19544268 -0.011122938
0.18754806 0.4778614 -0.32127237 -0.057431214 -0.21749714 0.63612777 -0.086068936 0.032565847
0.5194093 0.2262928 0.25498685 -0.22167815 0.16133451 -0.23469919 0.037532974 -0.9010488
-0.021644032 0.1970253 -0.20737754 0.3121012 -0.2130838 0.07733869 -0.031149007 0.29025015
-0.35299236 -0.028651644 -0.8124549 0.00258315 -0.5286997 -0.40955707 -0.2997074 -0.6211925
0.01115671 0.34164548 -0.015509445 -0.061114226 0.07806066 -0.24946044 -0.65236896 0.0056715365
0.3585951 0.0085707875 0.2664717 0.1539537 0.13361843 -0.009719767 -0.02608272 -0.00054756243
00000000: 66f5 25bf b1e7 db3e 353e c2bd ace6 a43e
00000010: d8b5 753d 0e28 eebd 1eb7 0b3c 5c22 cb3d
00000020: 5299 cf3d 3166 61be 11b1 033c 8c50 febb
00000030: 08f6 13bf b369 1f3e 67a8 853e e28e 75bd
00000040: 21d4 13bf 1ce1 ed3e c9af 0d3c 119c 473d
00000050: f735 58be 82f1 d3be deab 833e 1df7 553f
00000060: 999e 2bbf 5d89 1b3d 42da fa3d d5d1 3ebf
00000070: c72d bdbe a289 853e fa9b 493e 9fe7 043f
00000080: 117a 5ebf dd83 11be bd0c 88be 8362 74be
00000090: 1cb0 77be e493 53be 142b 3d3f 8bc2 b03e
000000a0: c19c ecbd f33b 76bf 2e20 1f3b 1cd2 f83e
000000b0: 444f 173e 9e42 a33e 126b 16bf d244 a4be
000000c0: 8dde 22be b39e f43e 2ab1 033c 9931 703e
000000d0: bd8e 8bbe a42a a3be 0adb bc3e e9ea 353e
000000e0: f825 3e3e 885a 983d 20a1 bb3e 9c22 d33e
000000f0: 9e82 f1bd ca54 d8bc 779b 413e 0a1c 5c3e
00000100: 20eb b83e 87ea c93e 1f5f dc3d 65e0 9e3e
00000110: c330 c83d dfa2 51be d44c 69be 2778 77be
00000120: cc7a 18bf dbbd 75be dd09 1f3e 76da d6be
00000130: 4127 efbe 49cd 31bf 7086 12bf 3b2d 69be
00000140: 522e 84be fc3d 57be 8231 77bf afd1 29be
00000150: 1023 8a3a bf12 7abe a69f fd3e 16e2 733e
00000160: ca79 f6bd 778f f2be e23c 50be 3406 b4bc
00000170: 9f44 3abf fde3 0fbe 0a2d 1d3f 9246 32bf
00000180: 6cd5 33be 01b7 d53e cf35 573e 7937 a4be
00000190: 7ced 403d 4597 e6be d67b 2f3d 8a0e 88be
000001a0: 597d 9bbe fb2a 823e 9f14 483d 52f2 2abf
000001b0: d832 31bf a8ac 54be ffd6 bebd ade9 19bf
000001c0: e7ae 15be 0b2f 1c3e c13b 4ebd 3ffc 95bd
000001d0: fd28 b03e f6ad 253f a8d3 0d3e 82be e6bd
000001e0: 7b6b 993e 9ce3 d23e b10c 2b3e 71aa 2cbf
000001f0: 5b26 e03d b0bb 0a3f 12d0 01be 4b8c 003e
00000200: cf16 1bbf eeb2 153e f0d4 f139 769b 7e3e
00000210: b282 f13d e30f 8f3e 26b0 643e b60c a6bc
00000220: dfb5 2ebd 3be3 f5bd 2241 793d 9345 e2bd
00000230: 3365 853e 747c e73e 4d35 073f 18dc f73e
00000240: 9566 613d f725 05bd 97ef c93e ee0c debe
00000250: f6d3 e8bc 988d ca3e 096a 093e c6ca dfbc
00000260: acb9 9b3d 18f9 363e 739f 873e 6934 eabc
00000270: d182 c13d e175 803e 154e 363f 5d55 39be
00000280: 646f 303e d97c 88be 0332 ff3e c6a5 3bbe
00000290: 96ad ddbe 71b1 51be b178 923e 9f11 15be
000002a0: 8c60 8e3d 5718 193e 2215 60be a360 e63e
000002b0: ab27 1ebe f92b 923d 0cb7 80be 1d2b 173f
000002c0: a83c e0be 0cf4 02bd b331 b23e 3146 b8bd
000002d0: 89f8 09be de95 27bf b1f7 293e 40e3 0ebe
000002e0: 9dd7 54bd 71ca b2bd ef03 603e 46c9 6c3e
000002f0: e825 ed3d 50a5 14be a6cc f0be d12a b0be
00000300: d52f 7f3c 20db 273e 4931 bf3c b0cb c0be
00000310: 6dab 2dbd f746 f8be 2566 06bd ec50 283f
00000320: 8ea3 b63c cea1 8dbd 67d0 1f3f cde2 20be
00000330: aff2 94be 1e0e ebbe 2022 483e fc3c 36bc
00000340: 990c 403e 40aa f43e d07d a4be fe3c 6bbd
00000350: 92b7 5ebe 45d9 223f e944 b0bd c463 053d
00000360: 02f8 043f 4db9 673e a38d 823e 99ff 62be
00000370: e034 253e fc54 70be 2dbc 193d 22ab 66bf
00000380: d34e b1bc 00c1 493e c75a 54be bacb 9f3e
00000390: a432 5abe bf63 9e3d 342c ffbc ab9b 943e
000003a0: 6abb b4be dab6 eabc 0bfd 4fbf 114a 293b
000003b0: dd58 07bf 77b1 d1be 4073 99be 7906 1fbf
000003c0: a2ca 363c 28ec ae3e 541b 7ebc e952 7abd
000003d0: 44de 9f3d 8f72 7fbe a701 27bf 4cd8 b93b
000003e0: c799 b73e 7d6c 0c3c fb6e 883e 0aa6 1d3e
000003f0: 45d3 083e a83f 1fbc 6eab d5bc 4b8a 0fba

rnn.bias_ih_l0 f4 [120]
-0.073391385 -0.17015141 -0.18665288 -0.077591814 -0.13426025 -0.07491741 -0.044154074 -0.06368474
-0.15234539 0.065381 0.17892446 0.086964495 -0.09142172 0.15192798 0.251191 0.43058404
-0.17568101 0.50111395 -0.025589867 -0.23846516 0.0007783753 0.14589061 0.0628499 0.26237118
0.1391795 0.037073888 0.0079391245 -0.30255932 -0.11759672 0.41189393 0.6485985 -0.23359141
-0.036410853 0.050248887 -0.13999596 -0.05767415 -0.3278605 -0.11731401 -0.24491218 0.24018882
-0.14494236 1.1807073 0.7730568 0.21188045 0.52256334 0.41019592 0.5916349 0.44447047
0.62819874 0.42536414 0.20455666 0.49540976 0.8451621 0.3627714 0.16961165 0.17631465
0.33643258 -0.0011324114 0.76339513 0.39323118 0.5146033 0.7629605 0.8657151 0.6430947
0.23437938 -0.3199428 0.7041542 1.0997323 0.5475663 0.2375387 -0.10992236 0.8986378
0.5965089 -0.41032887 0.74864376 0.5639361 1.4123042 0.90651816 0.641631 0.15919198
-0.03971937 0.16552232 0.22087465 -0.0684388 -0.018130708 -0.0046333754 -0.20097615 -0.07204972
0.079486266 -0.08864438 -0.39208597 0.15456796 -0.27812436 -0.73444366 0.20538837 0.38549504
-0.15004978 0.27753305 -0.10922076 0.03461523 -0.26464665 0.52293485 0.74097073 0.32246703
-0.22927293 -0.4625442 -0.34349865 -0.13818474 -0.05136437 0.5108497 -0.46315208 -0.11313791
-0.2570944 0.4976706 -0.008418364 0.28883034 -0.14485611 -0.15852611 -0.052468427 0.22048362
00000000: 394e 96bd 2c3c 2ebe ef21 3fbe 75e8 9ebd
00000010: 857b 09be 4d6e 99bd e7da 34bd 256d 82bd
00000020: 6e00 1cbe 79e6 853d f937 373e 711a b23d
00000030: 503b bbbd 0293 1b3e 1b9c 803e 8375 dc3e
00000040: b9e5 33be 0149 003f d7a1 d1bc 3630 74be
00000050: e20b 4c3a 5964 153e 73b7 803d 8455 863e
00000060: 1285 0e3e cada 173d 1a13 023c 0ee9 9abe
00000070: 8dd6 f0bd c3e3 d23e 8d0a 263f 9632 6fbe
00000080: 8c23 15bd c7d1 4d3d 1a5b 0fbe bb3b 6cbd
00000090: 55dd a7be 5442 f0bd 42ca 7abe 0ff4 753e
000000a0: c56b 14be 6b21 973f 0de7 453f 30f7 583e
000000b0: b6c6 053f 3305 d23e 6375 173f a291 e33e
000000c0: a2d1 203f 54c9 d93e 4d77 513e 59a6 fd3e
000000d0: 8b5c 583f 2cbd b93e adae 2d3e d48b 343e
000000e0: e440 ac3e 6c6d 94ba dd6d 433f 9955 c93e
000000f0: 0bbd 033f 6151 433f 819f 5d3f dba1 243f
00000100: 2601 703e 8bcf a3be 7343 343f 07c4 8c3f
00000110: 4e2d 0c3f 583d 733e f91e e1bd 200d 663f
00000120: cfb4 183f a016 d2be 1ea7 3f3f 1e5e 103f
00000130: 62c6 b43f 9311 683f ee41 243f 3903 233e
00000140: c7b0 22bd af7e 293e f72c 623e a429 8cbd
00000150: da86 94bc 92d3 97bb b1cc 4dbe ce8e 93bd
00000160: b2c9 a23d 2f8b b5bd 7ebf c8be 1047 1e3e
00000170: 5166 8ebe 8004 3cbf 5451 523e 9b5f c53e
00000180: a6a6 19be d018 8e3e 22af dfbd b3c8 0d3d
00000190: c47f 87be 0fdf 053f 42b0 3d3f 661a a53e
000001a0: 86c6 6abe 98d2 ecbe 0edf afbe 4d80 0dbe
000001b0: 7263 52bd 0cc7 023f 4522 edbe d9b4 e7bd
000001c0: e1a1 83be aece fe3e 2eed 09bc 92e1 933e
000001d0: 2955 14be ab54 22be 22e9 56bd 75c6 613e

rnn.bias_hh_l0 f4 [120]
-0.07068855 -0.1666855 -0.17100416 -0.077633776 -0.13574585 -0.055313475 -0.05466971 -0.061744623
-0.16752197 0.02718356 0.20543766 0.09203965 -0.07427518 0.14204958 0.2625604 0.42966628
-0.18429613 0.48907864 -0.025206579 -0.23509867 0.0016910823 0.1452333 0.011932027 0.2838876
0.14461511 0.03571313 0.009600198 -0.3111909 -0.10454953 0.40144947 0.64585894 -0.23396611
-0.09804723 0.05802414 -0.14210209 -0.057195872 -0.30737472 -0.117844984 -0.2407742 0.23928781
-0.14494221 1.1726887 0.7689946 0.21188055 0.5225685 0.4101962 0.59163815 0.44447005
0.62606764 0.42916214 0.19839855 0.49542078 0.8451674 0.362772 0.16961181 0.17631443
0.33643252 0.00665519 0.7633974 0.39323145 0.51460326 0.76295906 0.8474178 0.64309293
0.23437959 -0.31994286 0.70415527 1.0888717 0.5475696 0.21356696 -0.109933496 0.89933527
0.5923782 -0.41032895 0.7483093 0.5639383 1.4049795 0.9214985 0.6416313 0.15919143
-0.6232669 -0.025389804 0.2673494 0.017146543 -0.42697987 -0.39522552 -0.36725372 -0.16127421
-0.401299 0.82541484 -0.5219121 -0.92068017 0.5051998 0.0025166401 -1.4108272 0.41307214
-0.28854844 -1.8939505 -0.64227915 -0.3840711 -0.37569353 0.6626283 -0.16868582 -1.3755276
1.1898509 -0.31697345 -0.49200734 0.2388742 0.6682953 0.66653484 2.0316458 -0.03665321
0.57387733 0.39656994 -0.5103639 0.45470145 0.039755955 -0.35837775 -0.26695633 0.8029846
00000000: 29c5 90bd 9baf 2abe b71b 2fbe 75fe 9ebd
00000010: f600 0bbe 6290 62bd 59ed 5fbd eee7 7cbd
00000020: e18a 2bbe 0fb0 de3c 405e 523e 497f bc3d
00000030: 961d 98bd 7275 113e 516e 863e 38fd db3e
00000040: 20b8 3cbe 8468 fa3e 077e cebc b5bd 70be
00000050: 4ea7 dd3a 0ab8 143e 8c7e 433c b759 913e
00000060: fc15 143e ee47 123d 264a 1d3c 6a54 9fbe
00000070: 101e d6bd c98a cd3e 0357 253f d094 6fbe
00000080: fccc c8bd b8aa 6d3d 3683 11be 3846 6abd
00000090: 3860 9dbe b658 f1bd 838d 76be dd07 753e
000000a0: bb6b 14be aa1a 963f d5dc 443f 37f7 583e
000000b0: 0dc7 053f 3c05 d23e 9975 173f 9491 e33e
000000c0: f845 203f 24bb db3e fd28 4b3e cba7 fd3e
000000d0: e45c 583f 40bd b93e b8ae 2d3e c58b 343e
000000e0: e240 ac3e c813 da3b 036e 433f a255 c93e
000000f0: 0abd 033f 4951 433f 5ff0 583f bda1 243f
00000100: 3401 703e 8dcf a3be 8543 343f 2660 8b3f
00000110: 852d 0c3f 4cb1 5a3e d024 e1bd d63a 663f
00000120: 19a6 173f a316 d2be 3391 3f3f 435e 103f
00000130: 5ed6 b33f 53e7 6b3f f341 243f 1403 233e
00000140: 6b8e 1fbf 47fe cfbc 05e2 883e e876 8c3c
00000150: 1b9d dabe 005b cabe ae08 bcbe 1125 25be
00000160: 1077 cdbe 634e 533f 089c 05bf b2b1 6bbf
00000170: c654 013f 37ee 243b fc95 b4bf 317e d33e
00000180: 9fbc 93be f86c f2bf 686c 24bf f8a4 c4be
00000190: e75a c0be 02a2 293f fabb 2cbe 4a11 b0bf
000001a0: 094d 983f 584a a2be 63e8 fbbe 709b 743e
000001b0: 6715 2b3f 07a2 2a3f 7c06 0240 ad21 16bd
000001c0: a0e9 123f 370b cb3e 35a7 02bf a1ce e83e
000001d0: 24d7 223d 4a7d b7be 80ae 88be 6690 4d3f

transform.weight f4 [162, 40]
0.52262324 -0.10318057 0.3400075 0.3884087 -0.112726636 0.017942382 -0.2449638 0.4040465
-0.1294177 -0.19909306 -0.9714654 0.21941215 0.019167988 -0.12173658 0.42557687 0.27100882
0.2597473 0.4434431 -0.056216482 -0.06600048 0.006389787 -0.19391043 0.3719724 0.10664063
0.20680232 0.17110954 -0.013610819 0.18551609 -0.115198135 -0.17834967 -0.32035115 -0.06246237
-0.35809585 0.12463466 -0.7069611 -0.17029588 0.048600804 -0.20716193 -0.12368835 0.19958785
-0.22042502 -0.18152061 0.3219122 0.24641572 0.0060868436 0.14695753 -0.055205964 0.023397457
0.14008501 0.012725438 0.15173617 0.02772328 -0.1133733 0.23473105 0.27635285 0.08920241
-0.16989057 -0.065115064 0.20149626 0.13465957 0.030142386 -0.0041123163 -0.3211284 0.1149134
0.08613649 0.17529884 -0.036354598 -0.15000556 -0.2713866 -0.060126863 -0.16947939 -0.071261644
-0.13800277 0.020805968 -0.47808772 0.19180138 -0.09849927 -0.23243454 0.111594774 -0.2810325
0.08387954 0.40164843 -0.036914524 -0.078344956 -0.015331615 -0.06959217 0.04126594 -0.16315904
0.13443318 -0.21646254 0.003816944 0.25101575 0.023189018 0.082783744 0.10764641 0.0035612404
0.24043012 0.22878723 -0.055038635 0.06291338 -0.032024074 0.009971551 0.033062223 0.037022673
0.02929787 0.193354 0.014618116 -0.49410367 0.14558806 -0.009618692 0.06993634 -0.13820088
0.057312306 -0.52180946 0.07020536 0.047817674 -0.015496008 0.12264205 0.056879472 -0.15449397
0.07996954 0.244657 0.41349956 0.052647356 -0.10704922 0.05228815 -0.004392521 -0.099079214
0.44727063 0.09566328 -0.020895183 -0.14628144 -0.3497575 0.22716203 -0.023612425 0.017210886
-0.14945167 -0.1471523 0.32075417 -0.09244847 0.14885381 0.031725552 0.04783912 0.1373754
0.19896716 0.1926551 -0.024800226 -0.5023203 -0.031058487 0.008448149 0.05011254 0.35240906
0.17053036 0.030120581 -0.1357589 0.058060195 -0.57073104 -0.034530636 0.15017588 -0.10943408
0.3971959 0.55009705 0.27343577 0.22731684 0.2116385 0.3382476 0.33185223 0.06531819
0.28286493 -0.10847595 0.10186008 -0.061967593 -0.23830807 0.25417173 0.06445685 -0.034174826
0.19263457 0.11375655 0.44901142 -0.04337578 0.30688605 -0.22486018 -0.04738143 0.29414073
0.34128267 0.57606333 0.48719946 -0.2909567 -0.1869257 0.36100975 -0.2313401 0.4148889
0.16646676 -0.26740944 -0.5156708 -0.010440683 -0.33198163 0.095704965 0.44736373 -0.3906155
-0.051443532 -0.020892581 0.20418312 0.29275256 -0.04336561 -0.109020896 -0.01762432 -0.3767319
0.43968824 0.01918839 0.10761177 -0.06916157 -0.08695358 0.115071476 -0.06104397 -0.15178621
0.09140815 -0.038271904 0.35026082 -0.039699405 -0.0067128316 0.015836949 -0.16730966 -0.084524594
-0.0894901 0.044721514 -0.006199579 -0.36668548 -0.1908887 -0.10436225 -0.03621813 -0.0057957983
-0.049380146 -0.27642164 -0.22153312 -0.06580997 -0.36002964 -0.2337525 -0.07138864 -0.12968862
-0.050895356 -0.086575 0.036639616 0.1948062 0.04791549 -0.031927127 0.0087378435 -0.11816068
0.07243556 -0.08509203 0.16925015 -0.014848525 0.08338295 0.06926091 0.15756072 -0.024761125
00000000: a3ca 053f 5650 d3bd 7715 ae3e 81dd c63e
00000010: 39dd e6bd e7fb 923c cad7 7abe 2fdf ce3e
00000020: 1386 04be 0ddf 4bbe f5b1 78bf 94ad 603e
00000030: 2f06 9d3c 0751 f9bd 36e5 d93e abc1 8a3e
00000040: 99fd 843e f90a e33e 4143 66bd 422b 87bd
00000050: 6b61 d13b 7590 46be 2b73 be3e 6766 da3d
00000060: fdc3 533e 5737 2f3e eaff 5ebc eef7 3d3e
00000070: 00ed ebbd 4ca1 36be 1105 a4be 8bd8 7fbd
00000080: 5758 b7be 7540 ff3d 67fb 34bf 0b62 2ebe
00000090: a311 473d 4222 54be 5150 fdbd c260 4c3e
000000a0: 19b7 61be 8ae0 39be add1 a43e 6754 7c3e
000000b0: 2574 c73b 097c 163e a61f 62bd 06ac bf3c
000000c0: 7272 0f3e 5b7e 503c ba60 1b3e ef1b e33c
000000d0: 4330 e8bd 565d 703e 1f7e 8d3e c1af b63d
000000e0: cbf7 2dbe 0c5b 85bd 0955 4e3e 33e4 093e
000000f0: 2aed f63c 9cc0 86bb f16a a4be b757 eb3d
00000100: 5468 b03d 8a81 333e 8fe8 14bd 0f9b 19be
00000110: 2ff3 8abe 9647 76bd 018c 2dbe a0f1 91bd
00000120: 9950 0dbe 4771 aa3c eac7 f4be 9567 443e
00000130: fcb9 c9bd 5203 6ebe cd8b e43d 7ee3 8fbe
00000140: 09c9 ab3d dda4 cd3e af33 17bd 5273 a0bd
00000150: 7431 7bbc 5786 8ebd 7906 293d 2a13 27be
00000160: daa8 093e 5ba8 5dbe b225 7a3b 2385 803e
00000170: e5f6 bd3c 868a a93d b975 dc3d b363 693b
00000180: 5033 763e 3347 6a3e 3170 61bd bbd8 803d
00000190: ad2b 03bd b75f 233c 416c 073d 16a5 173d
000001a0: 1602 f03c 97fe 453e d380 6f3c 28fb fcbe
000001b0: 0915 153e b897 1dbc c93a 8f3d 8884 0dbe
000001c0: 4fc0 6a3d 4e95 05bf d4c7 8f3d 77dc 433d
000001d0: f8e2 7dbc c12b fb3d 73fa 683d ab33 1ebe
000001e0: 12c7 a33d 5d87 7a3e 37b6 d33e c1a4 573d
000001f0: 9f3c dbbd 192c 563d 23ef 8fbb 0bea cabd
00000200: a800 e53e 1ceb c33d 602c abbc cdca 15be
00000210: 6a13 b3be 2a9d 683e d86e c1bc d8fd 8c3c
00000220: dc09 19be 18af 16be e439 a43e a055 bdbd
00000230: 226d 183e a7f2 013d f4f2 433d 23ac 0c3e
00000240: 0cbe 4b3e 6147 453e d829 cbbc 1098 00bf
00000250: 5e6e febc 1b6a 0a3c cf42 4d3d f66e b43e
00000260: 839f 2e3e 70bf f63c 6204 0bbe 87d0 6d3d
00000270: 6e1b 12bf ff6f 0dbd b5c7 193e fa1e e0bd
00000280: 435d cb3e 29d3 0c3f c6ff 8b3e bfc5 683e
00000290: c3b7 583e ca2e ad3e 89e8 a93e 8bc5 853d
000002a0: acd3 903e a428 debd 059c d03d bbd1 7dbd
000002b0: 0807 74be cc22 823e f401 843d e7fa 0bbd
000002c0: ff41 453e 32f9 e83d d3e4 e53e cdaa 31bd
000002d0: 2b20 9d3e bf41 66be 0813 42bd 9d99 963e
000002e0: 9abc ae3e e378 133f 3572 f93e 47f8 94be
000002f0: 7369 3fbe 45d6 b83e 6be4 6cbe 516c d43e
00000300: 4376 2a3e e4e9 88be 0003 04bf 660f 2bbc
00000310: 7ff9 a9be f700 c43d dc0c e53e c1fe c7be
00000320: 74b6 52bd eb26 abbc 6115 513e aae3 953e
00000330: 23a0 31bd 5946 dfbd e160 90bc 01e3 c0be
00000340: d11e e13e f830 9d3c 8f63 dc3d 95a4 8dbd
00000350: b814 b2bd 98aa eb3d 3e09 7abd d86d 1bbe
00000360: 3234 bb3d 00c3 1cbd 6355 b33e d89b 22bd
00000370: 50f7 dbbb 7dbc 813c 3953 2bbe 3b1b adbd
00000380: 9646 b7bd e82d 373d d725 cbbb 33be bbbe
00000390: 5478 43be e0bb d5bd 7659 14bd aeea bdbb
000003a0: d642 4abd 2387 8dbe 94d9 62be 61c7 86bd
000003b0: ce55 b8be d15c 6fbe 3534 92bd 18cd 04be
000003c0: a677 50bd 3c4e b1bd 6c13 163d 477b 473e
000003d0: 0843 443d 05c6 02bd 2c29 0f3c 3afe f1bd
000003e0: 1859 943d bb44 aebd e94f 2d3e 3a47 73bc
000003f0: aec4 aa3d aad8 8d3d 9957 213e d8d7 cabc

transform.bias f4 [162]
-4.629551 -4.083106 -2.9979303 -3.5457213 -4.760336 -3.9827025 -3.338113 -3.8542774
-4.507982 -2.2311695 -4.395294 -2.6451461 -3.7223022 -4.8933535 -4.837634 -3.615869
-4.1215754 -2.6979735 -3.4750872 -3.324941 -3.8980563 -3.0489848 -3.6444583 -3.3772984
-5.0132494 -4.3316 -4.2384686 -3.4904702 -3.713992 -2.7694037 -4.7219515 -4.156796
-3.578218 -3.5396395 -4.170037 -3.738854 -4.188468 -4.1456537 -3.2093449 -3.343238
-3.5211575 -3.3196623 -3.6524224 -4.9941063 -2.9536767 -4.835524 -4.1803703 -3.9019878
-4.6308346 -3.1120653 -2.69448 -3.7102757 -4.9448605 -3.2053516 -3.9049 -3.7762809
-3.07687 -4.346234 -3.978751 -4.5765204 -3.4006248 -4.6948476 -3.1031342 -4.6206646
-4.293246 -3.485017 -3.2570267 -3.4948225 -4.6226606 -3.1203954 -2.778906 -4.243474
-2.7646399 -3.7715852 -3.29754 -3.7897508 -3.3379905 -4.234371 -3.853169 -2.8252382
-3.7572362 -3.541422 -3.3605013 -4.0147514 -4.522341 -4.6643615 -3.4576879 -2.3674364
-4.717013 -3.417111 -4.665978 -4.5679975 -3.9482462 -4.8095956 -3.184501 -3.7279859
-3.785283 -2.4392602 -3.162921 -3.264742 -3.8973217 -3.0684974 -4.5603523 -2.6987395
-4.6091504 -2.8807025 -4.9567633 -3.491237 -4.1814523 -3.2696238 -4.4594254 -2.41533
-4.8996277 -3.2850332 -3.6680677 -2.2182214 -3.5557218 -4.980735 -4.0768027 -2.592015
-4.6247444 -4.157556 -4.5460467 -2.7138314 -3.1363094 -5.6305404 -2.205704 -3.5580785
-3.8399277 -5.853898 -4.10517 -3.1552691 -4.140639 -3.1803124 -3.918713 -4.25728
-3.6938298 -3.721499 -5.1595683 -2.6283834 -3.4369364 -5.54575 -3.8039804 -4.90827
-4.1525846 -4.9672117 -3.5898132 -5.2159414 -3.9383578 -3.7142267 -3.3591037 -4.396216
-4.196823 -5.4858346 -2.6740053 -4.4461694 -3.7786229 -3.423157 -4.3566604 -3.211173
-3.0008085 -5.8550663
00000000: 4825 94c0 cea8 82c0 17de 3fc0 19ed 62c0
00000010: ac54 98c0 99e4 7ec0 a5a3 55c0 7bac 76c0
00000020: 6341 90c0 7bcb 0ec0 40a6 8cc0 134a 29c0
00000030: 333a 6ec0 5a96 9cc0 e6cd 9ac0 666a 67c0
00000040: f2e3 83c0 99ab 2cc0 d467 5ec0 d5cb 54c0
00000050: c179 79c0 9122 43c0 ce3e 69c0 a825 58c0
00000060: 8a6c a0c0 789c 8ac0 89a1 87c0 dd63 5fc0
00000070: 0cb2 6dc0 e93d 31c0 3a1a 97c0 7904 85c0
00000080: 8601 65c0 7489 62c0 f170 85c0 6249 6fc0
00000090: ee07 86c0 32a9 84c0 e865 4dc0 9df7 55c0
000000a0: a55a 61c0 5975 54c0 4ac1 69c0 b8cf 9fc0
000000b0: 0a09 3dc0 9dbc 9ac0 98c5 85c0 2bba 79c0
000000c0: cc2f 94c0 142c 47c0 5c72 2cc0 2875 6dc0
000000d0: 4c3c 9ec0 7b24 4dc0 e2e9 79c0 96ae 71c0
000000e0: 70eb 44c0 5914 8bc0 dba3 7ec0 db72 92c0
000000f0: d6a3 59c0 313c 96c0 c099 46c0 7cdc 93c0
00000100: 4562 89c0 850a 5fc0 2073 50c0 2cab 5fc0
00000110: d6ec 93c0 8fb4 47c0 99d9 31c0 8aca 87c0
00000120: dcef 30c0 a761 71c0 e50a 53c0 478b 72c0
00000130: a3a1 55c0 f87f 87c0 529a 76c0 b4d0 34c0
00000140: 8f76 70c0 a8a6 62c0 7412 57c0 d878 80c0
00000150: 04b7 90c0 7342 95c0 c24a 5dc0 1484 17c0
00000160: c5f1 96c0 f2b1 5ac0 b14f 95c0 092d 92c0
00000170: 11b0 7cc0 35e8 99c0 ddce 4bc0 5297 6ec0
00000180: 1442 72c0 d71c 1cc0 4c6d 4ac0 88f1 50c0
00000190: b86d 79c0 4362 44c0 68ee 91c0 26b8 2cc0
000001a0: 297e 93c0 6e5d 38c0 ce9d 9ec0 6d70 5fc0
000001b0: 75ce 85c0 8441 51c0 9db3 8ec0 c494 1ac0
000001c0: c0c9 9cc0 fc3d 52c0 9fc1 6ac0 57f7 0dc0
000001d0: f290 63c0 2e62 9fc0 2b75 82c0 93e3 25c0
000001e0: e8fd 93c0 b30a 85c0 3779 91c0 6aaf 2dc0
000001f0: 4bb9 48c0 632d b4c0 412a 0dc0 8fb7 63c0
00000200: 60c1 75c0 2253 bbc0 8d5d 83c0 eeef 49c0
00000210: 1d80 84c0 3d8a 4bc0 32cc 7ac0 a33b 88c0
00000220: b567 6cc0 0a2d 6ec0 2f1b a5c0 6f37 28c0
00000230: c4f6 5bc0 c976 b1c0 6a74 73c0 8c10 9dc0
00000240: f9e1 84c0 66f3 9ec0 80bf 65c0 fee8 a6c0
00000250: 0e0e 7cc0 e4b5 6dc0 8efb 56c0 cdad 8cc0
00000260: 604c 86c0 f58b afc0 e722 2bc0 0547 8ec0
00000270: f5d4 71c0 0115 5bc0 c369 8bc0 dc83 4dc0
00000280: 3f0d 40c0 b45c bbc0

exp_avg f4 [120, 122]
-2.3714348e-09 -2.6440528e-08 -2.2810262e-07 1.9095717e-07 -3.3037292e-08 2.1020309e-08 1.1649212e-07 2.8568238e-07
7.803214e-09 5.009938e-07 -3.6499824e-08 -1.2822812e-07 -1.5291957e-07 1.9221945e-08 -1.4825726e-07 -1.3925677e-07
1.3633705e-07 1.206535e-07 -1.5507354e-07 -7.975453e-08 -2.2835676e-08 -5.4794293e-07 -3.7507345e-08 -9.766501e-08
-1.2449704e-08 -2.1012802e-08 -3.441765e-08 -1.4946416e-07 -6.8006855e-08 -5.54427e-07 1.080358e-07 -1.3756133e-08
-1.3285971e-07 -8.653067e-08 -7.319037e-08 1.2417476e-07 -1.3135437e-07 -1.8365128e-07 -1.5935552e-08 -1.10500785e-07
-5.004496e-08 -2.8289683e-08 -2.5582214e-08 1.6759488e-08 2.4812719e-08 3.6625718e-08 -2.750074e-07 -3.66537e-08
-4.0311083e-09 3.552158e-07 3.00778e-08 1.0614109e-07 1.0341639e-08 -3.747431e-07 1.9409185e-08 4.400445e-08
2.1714183e-07 -1.254869e-07 1.2857689e-07 -5.9593514e-08 -2.0543277e-08 -1.6655486e-08 5.506116e-08 9.970619e-09
-2.3255698e-08 1.2960518e-09 -1.5651905e-07 -1.553213e-07 -4.3619917e-08 -3.6428256e-07 -5.6660065e-07 -3.86838e-08
-2.5680964e-07 -1.5329739e-07 -2.539156e-07 1.7513962e-07 -2.560079e-07 -6.5778667e-09 1.7373916e-08 4.0653068e-09
-3.2649666e-08 8.233195e-08 -1.413651e-07 -2.0056076e-07 3.5041122e-08 1.8835578e-08 -2.3774854e-08 -2.050605e-08
-2.0348295e-07 9.866504e-08 1.9454187e-09 -4.6023057e-08 6.7304398e-09 1.3533024e-08 1.1277346e-07 -3.2831316e-08
-4.2900393e-08 -4.1810713e-07 -3.841195e-07 -3.453199e-07 6.4073498e-09 -2.6705743e-07 -7.566906e-08 1.2926411e-07
-7.577389e-08 -2.1590114e-07 -1.9264702e-08 -2.9664672e-08 1.4837963e-07 -5.1230103e-08 1.456993e-08 2.558278e-07
6.307821e-08 -3.3247608e-07 1.06056945e-07 4.7141089e-07 -7.304288e-08 4.8389523e-08 -3.2084678e-08 4.7407624e-08
2.7329335e-07 7.322205e-09 -8.977389e-08 2.1668864e-09 2.2009658e-07 8.204086e-08 1.5442526e-09 -1.93247e-07
3.0385021e-07 -7.328818e-09 1.7300524e-08 4.262344e-07 -1.6823451e-08 3.6083765e-08 4.8996412e-08 9.619065e-08
9.465428e-08 4.3836724e-08 7.460722e-09 2.601412e-07 3.8666197e-08 -9.075455e-08 -4.8649177e-08 1.06841746e-07
-3.6254093e-08 1.823033e-07 -3.033124e-09 4.3155808e-08 1.7137448e-07 1.3413411e-07 2.1780235e-08 1.7405503e-07
1.3170552e-08 1.02759245e-07 1.2514197e-07 7.764266e-08 -5.69297e-08 2.4213453e-08 -2.4678972e-08 1.4934084e-08
1.3019745e-07 1.7833672e-08 6.525457e-07 1.2820918e-07 9.718943e-08 -2.2546233e-08 -5.178288e-08 1.298007e-09
1.03885434e-07 1.2880066e-07 4.265146e-08 -1.0215615e-07 4.925986e-08 1.9063958e-07 -2.7747178e-09 7.311482e-08
2.458019e-07 2.3755878e-07 2.316009e-07 4.10137e-08 8.744189e-08 -7.34601e-08 8.662733e-09 3.911891e-08
9.6758036e-08 -1.9473157e-08 -1.0064908e-10 1.1097674e-07 6.141467e-08 -6.6131194e-09 -7.802384e-08 1.0446035e-07
1.6675217e-07 1.9046188e-07 1.1078505e-07 3.4998166e-08 6.354311e-08 1.02997774e-07 4.0042497e-08 3.7752763e-08
2.6663622e-07 1.4840207e-07 8.664292e-08 -1.1401104e-07 -4.611945e-08 3.806946e-08 -4.9898652e-08 2.5863708e-08
-1.4891219e-10 -1.7028237e-08 4.4988454e-08 -3.7224275e-08 7.733597e-08 -5.1281308e-08 3.4241893e-08 -9.879561e-09
1.8952298e-07 2.7121058e-07 -1.84328e-07 3.0400523e-07 -9.0765646e-08 -9.03078e-09 2.1023313e-07 2.8720333e-07
8.3612136e-08 2.0702762e-08 -4.835515e-08 3.3710472e-07 -1.457129e-08 9.5397986e-08 -4.605676e-08 1.4435909e-07
2.7002393e-08 -8.6585594e-08 2.702471e-10 -2.3545708e-08 -2.8467473e-09 1.618293e-07 1.4265798e-07 4.5763264e-09
9.720488e-09 3.420164e-07 3.2175816e-08 1.1700441e-07 -6.7817654e-09 -4.790581e-08 -7.402275e-07 -8.152251e-08
-3.1826655e-08 -3.3320045e-08 -1.94088e-07 -5.4436924e-08 -4.3474312e-08 -3.581934e-07 -6.086453e-08 -4.2970936e-07
00000000: b9f6 22b1 561f e3b2 5fec 74b4 e809 4d34
00000010: e3e4 0db3 2690 b432 382a fa33 e35f 9934
00000020: e60e 0632 087c 0635 fbc3 1cb3 14af 09b4
00000030: 3632 24b4 811d a532 a530 1fb4 9c86 15b4
00000040: 0b64 1234 fb8c 0134 4a82 26b4 8445 abb3
00000050: 2f28 c4b2 5a16 13b5 c317 21b3 e8bb d1b3
00000060: 61e2 55b2 a47f b4b2 9bd2 13b3 657c 20b4
00000070: 2a0b 92b3 efd3 14b5 4f01 e833 1d54 6cb2
00000080: 33a8 0eb4 bdd2 b9b3 d52c 9db3 e654 0534
00000090: 6a0a 0db4 ae31 45b4 a6e2 88b2 734c edb3
000000a0: 04f1 56b3 ac01 f3b2 e2bf dbb2 81f6 8f32
000000b0: bf23 d532 674e 1d33 bba4 93b4 2b6d 1db3
000000c0: 0182 8ab1 7db4 be34 e42e 0133 aeef e333
000000d0: 02ab 3132 4d30 c9b4 40b9 a632 68ff 3c33
000000e0: 7e27 6934 94bd 06b4 f20e 0a34 c3f3 7fb3
000000f0: 2577 b0b2 cd11 8fb2 637c 6c33 3f4b 2b32
00000100: d2c3 c7b2 c520 b230 a10f 28b4 65c6 26b4
00000110: 9b58 3bb3 9d92 c3b4 8018 18b5 4a25 26b3
00000120: a6df 89b4 119a 24b4 e551 88b4 030e 3c34
00000130: 7571 89b4 8703 e2b1 a53d 9532 d1ae 8b31
00000140: b03a 0cb3 78ce b033 25ca 17b4 b959 57b4
00000150: 1f80 1633 e0cb a132 7539 ccb2 4825 b0b2
00000160: f87c 5ab4 aee1 d333 2bb0 0531 e3aa 45b3
00000170: 9341 e731 de7e 6832 de2d f233 6a02 0db3
00000180: 7b41 38b3 3578 e0b4 fb38 ceb4 6864 b9b4
00000190: a527 dc31 1860 8fb4 817f a2b3 d9cb 0a34
000001a0: 23b9 a2b3 74d2 67b4 877b a5b2 4ed1 feb2
000001b0: 4852 1f34 1808 5cb3 3b4f 7a32 b558 8934
000001c0: 9d75 8733 2a7f b2b4 6cc1 e333 3816 fd34
000001d0: bfdb 9cb3 d8d4 4f33 7acd 09b3 3c9d 4b33
000001e0: 27b9 9234 cc96 fb31 b8c9 c0b3 45e8 1431
000001f0: b053 6c34 712e b033 8f3d d430 557f 4fb4
00000200: db20 a334 f7d0 fbb1 419c 9432 36d5 e434
00000210: 2983 90b2 85fa 1a33 2070 5233 5e91 ce33
00000220: be44 cb33 fd46 3c33 9a2c 0032 89a9 8b34
00000230: ef11 2633 d7e4 c2b3 56f2 50b3 df70 e533
00000240: ccb5 1bb3 26bf 4334 486f 50b1 505a 3933
00000250: 0f03 3834 8106 1034 3e17 bb32 e2e3 3a34
00000260: b344 6232 7eac dc33 c35e 0634 81bc a633
00000270: de82 74b3 f2fd cf32 a2fd d3b2 6648 8032
00000280: 67cc 0b34 a930 9932 992a 2f35 dfa9 0934
00000290: 74b6 d033 b1ab c1b2 e167 5eb3 9065 b230
000002a0: 9f17 df33 754c 0a34 c72f 3733 f060 dbb3
000002b0: ca91 5333 9cb2 4c34 5aad 3eb1 4c03 9d33
000002c0: c2f6 8334 a913 7f34 f8ad 7834 0a27 3033
000002d0: b0c7 bb33 1ec1 9db3 1ad3 1432 b203 2833
000002e0: 4bc9 cf33 ed45 a7b2 6554 ddae 1c52 ee33
000002f0: 12e3 8333 9d39 e3b1 0f8e a7b3 af53 e033
00000300: 7d0c 3334 c381 4c34 bae8 ed33 e450 1633
00000310: 3275 8833 a02f dd33 31fb 2b33 9a25 2233
00000320: 3426 8f34 7358 1f34 7310 ba33 3bd6 f4b3
00000330: df14 46b3 d081 2333 2650 56b3 e52a de32
00000340: 0ebb 23af 7d45 92b2 5439 4133 86e0 1fb3
00000350: e613 a633 6540 5cb3 5c11 1333 c5ba 29b2
00000360: ae7f 4b34 e69a 9134 b2eb 45b4 2936 a334
00000370: f1ea c2b3 ca25 1bb2 71bc 6134 ed30 9a34
00000380: 428e b333 dbd5 b132 0daf 4fb3 52fb b434
00000390: 3655 7ab2 99dd cc33 f1cf 45b3 2001 1b34
000003a0: e4f2 e732 eff0 b9b3 e691 942f 8f41 cab2
000003b0: 82a0 43b1 4dc3 2d34 872d 1934 cb3d 9d31
000003c0: 29ff 2632 609e b734 af31 0a33 db43 fb33
000003d0: 0a05 e9b1 ffc0 4db3 0cb4 46b5 7911 afb3
000003e0: c7b1 08b3 c71b 0fb3 8166 50b4 08ce 69b3
000003f0: 83b8 3ab3 ba4d c0b4 a1b4 82b3 ceb2 e6b4

exp_avg_sq f4 [120, 122]
6.1971987e-14 4.3039514e-13 1.3115082e-12 1.4794268e-12 4.871048e-14 9.349311e-13 9.160783e-13 2.3284591e-13
7.512384e-14 4.3891323e-12 1.7420416e-13 1.4990058e-12 5.8937615e-13 2.0434907e-14 2.7540558e-14 3.7898656e-13
1.8736483e-13 2.606686e-12 3.3676496e-13 4.5355028e-13 9.2628846e-14 2.4816286e-12 2.3930502e-13 1.2142701e-12
8.234481e-15 1.739523e-13 2.8363873e-13 7.3886416e-13 4.7190534e-13 2.6638925e-12 5.059862e-14 2.6512578e-13
1.8882127e-12 2.1976607e-12 3.8715984e-13 4.4766447e-13 2.2306446e-13 1.6317006e-13 1.1491962e-12 7.9148114e-13
9.0690286e-13 1.2650778e-12 7.7456027e-13 1.887156e-14 1.977914e-12 3.861568e-14 2.659788e-13 2.2409464e-13
1.1568172e-13 3.2473004e-12 2.8025904e-12 3.737525e-13 6.2860212e-15 2.218984e-12 3.7753917e-13 3.929193e-13
1.7356475e-12 2.6800334e-13 1.675501e-13 4.7538823e-14 1.4086689e-12 7.024202e-14 2.2043385e-12 1.3634309e-13
2.0251112e-13 9.363945e-13 1.3628803e-12 8.58734e-13 6.006232e-14 1.9773076e-12 8.1257934e-12 5.311805e-13
4.412963e-12 3.309819e-13 8.102316e-13 6.336324e-13 1.5447115e-12 5.397464e-13 4.0848683e-13 2.227241e-12
5.8493894e-13 7.2493904e-13 1.076867e-12 7.6297616e-13 1.3102556e-13 7.308507e-14 9.554641e-13 4.4781856e-12
1.7598116e-13 8.335142e-13 1.1704232e-13 1.9593795e-13 3.9840776e-13 1.3513043e-14 7.9430906e-13 5.0848697e-13
4.786851e-13 4.673189e-12 1.2858365e-12 1.900586e-12 5.329984e-13 3.0152792e-12 1.1414346e-13 3.411558e-12
1.395334e-13 2.303063e-12 6.3996334e-14 8.0737836e-13 6.8119013e-13 1.4683489e-12 1.300176e-13 4.4580585e-12
2.6599611e-14 8.468163e-13 6.3695934e-13 5.2669718e-12 7.7727457e-13 9.3760914e-15 3.8433154e-13 4.594885e-12
1.069058e-13 3.377071e-13 6.9086684e-14 1.1949934e-13 2.338785e-12 6.018252e-13 2.9868072e-14 2.4399157e-12
9.023642e-13 7.878914e-14 2.8963726e-14 6.661248e-12 3.9146884e-13 2.3400982e-12 1.5785306e-13 3.464942e-14
2.1751693e-14 4.5180607e-13 2.152005e-13 1.0801903e-12 2.5698616e-13 1.0936704e-12 7.438862e-14 1.2659036e-12
2.1081239e-13 3.9717145e-13 1.5043201e-15 6.501956e-13 5.117842e-13 1.5388492e-13 1.1309117e-13 1.1369457e-12
1.840508e-14 1.2443779e-13 1.5035719e-12 6.6144806e-13 2.7902417e-13 5.6395464e-13 1.8732546e-13 1.2893492e-13
7.0099644e-13 4.896138e-13 2.307202e-12 2.6651608e-12 4.680917e-13 5.720444e-15 2.4003087e-12 2.865587e-14
1.0569517e-13 1.3054283e-13 5.891267e-14 1.2611246e-12 6.9097283e-13 9.594778e-14 1.2977043e-15 1.2710667e-12
4.5253281e-13 3.0946052e-13 6.110583e-13 1.290211e-13 2.9663612e-13 4.3687005e-14 7.3374365e-14 4.8758788e-14
3.854949e-13 1.4553136e-14 4.3869964e-14 7.494201e-13 1.0290176e-12 6.068919e-13 6.1302295e-14 1.5833221e-12
2.1917986e-12 1.6145791e-13 2.8298223e-12 3.7857608e-13 9.604099e-13 4.5836143e-13 3.5528828e-13 3.6546145e-14
6.8464906e-13 1.8795987e-12 7.5635716e-13 4.3322838e-13 8.6572e-13 9.184849e-14 1.257594e-13 1.5723268e-14
1.2079908e-13 2.4033093e-12 2.7886317e-13 2.3155149e-13 3.785062e-14 1.4233634e-13 4.3091873e-13 7.678544e-15
4.801396e-13 4.1760814e-13 8.3721886e-13 3.080184e-12 7.992437e-13 6.698837e-13 5.6892484e-13 1.9762208e-12
6.099445e-14 1.0823964e-12 8.3076354e-14 2.0261737e-12 1.2189305e-14 6.311915e-13 2.4450843e-14 3.0016224e-13
4.0725852e-14 1.3205438e-12 4.5790347e-15 3.8399224e-13 4.2820145e-14 2.3053662e-12 2.060211e-13 1.8815704e-15
8.7427454e-14 2.6486808e-12 4.4404737e-14 3.7894525e-13 1.0517468e-13 2.1281253e-13 7.466181e-12 4.1519953e-13
2.982957e-14 1.2363098e-13 5.2986196e-13 1.2670092e-13 3.2958198e-14 6.3021957e-12 7.5933603e-14 4.966834e-12
00000000: 6b8c 8b29 7a4a f22a 1094 b82b f835 d02b
00000010: 5c5f 5b29 7194 832b 33ed 802b a214 832a
00000020: f229 a929 ca6d 9a2c ee22 442a 60f7 d22b
00000030: 07e5 252b b00f b828 3410 f828 b859 d52a
00000040: 3cf4 522a e16d 372c f294 bd2a 7c53 ff2a
00000050: e594 d029 0ca1 2e2c 7db7 862a b1e4 aa2b
00000060: d756 1428 56da 432a a6ac 9f2a c6f8 4f2b
00000070: 5dd4 042b 6c74 3b2c 3de0 6329 a740 952a
00000080: 04df 042c 89a5 1a2c 9df3 d92a 4003 fc2a
00000090: f425 7b2a 91b6 372a 28bc a12b 3ac8 5e2b
000000a0: 3d45 7f2b 3b0b b22b f304 5a2b dbfa a928
000000b0: ee2e 0b2c d9e8 2d29 96bb 952a e24e 7c2a
000000c0: fc3e 022a 2a82 642c fb36 452c 6967 d22a
000000d0: 507a e227 a925 1c2c 2189 d42a a431 dd2a
000000e0: 4b45 f42b 5adf 962a 07a5 3c2a 8818 5629
000000f0: a540 c62b c52b 9e29 d51d 1b2c 3882 192a
00000100: db01 642a 2bc9 832b f0ce bf2b 4eb6 712b
00000110: 923f 8729 0224 0b2c 52f3 0e2d 9783 152b
00000120: 7044 9b2c 8553 ba2a 570f 642b 075a 322b
00000130: 1966 d92b d4ec 172b 28f5 e52a 68ba 1c2c
00000140: 4ba5 242b 5d0d 4c2b 398e 972b 3ac2 562b
00000150: 8c85 132a ad92 a429 3978 862b e98f 9d2c
00000160: 1e23 462a 079d 6a2b 27c7 032a 459b 5c2a
00000170: 9c48 e02a e96d 7328 0094 5f2b 5920 0f2b
00000180: e6bc 062b 586c a42c 24f7 b42b eabd 052c
00000190: 9506 162b 712e 542c 9d83 002a 2a11 702c
000001a0: c419 1d2a 4b10 222c 601b 9029 be41 632b
000001b0: ecbc 3f2b d8a6 ce2b 0663 122a 9fda 9c2c
000001c0: 8796 ef28 8c5b 6e2b c249 332b aa50 b92c
000001d0: 89c8 5a2b 97e7 2828 035c d82a 0bab a12c
000001e0: ffba f029 b91c be2a c391 9b29 578b 062a
000001f0: ce93 242c 1366 292b 8b83 0629 9db1 2b2c
00000200: 31fe 7d2b d96a b129 e770 0229 305f ea2c
00000210: 9b60 dc2a 76ab 242c 0cba 312a 100c 1c29
00000220: fdeb c328 1e58 fe2a 524b 722a f505 982b
00000230: 9cab 902a a1eb 992b 1f82 a729 fc28 b22b
00000240: 895a 6d2a 7096 df2a 9ecb d826 8803 372b
00000250: f00d 102b 4f42 2d2a 9fa8 fe29 c902 a02b
00000260: 3ac7 a528 c01a 0c2a e39b d32b 5b2e 3a2b
00000270: 9f13 9d2a 37bd 1e2b e3e8 522a f62a 112a
00000280: 1e50 452b 64d0 092b db5a 222c 458b 3b2c
00000290: 90c1 032b c919 ce27 1ee8 282c f80d 0129
000002a0: 1e01 ee29 69fa 122a d8a8 8429 cd7c b12b
000002b0: d77d 422b 210e d829 d704 bb26 01e3 b22b
000002c0: dac0 fe2a f635 ae2a 64ff 2b2b cd43 112a
000002d0: c5fd a62a b0bf 4429 7139 a529 0e97 5b29
000002e0: ac03 d92a 3f15 8328 a092 4529 69f1 522b
000002f0: 44d2 902b 2cd3 2a2b 5e0a 8a29 31d5 de2b
00000300: ef3b 1a2c 13c9 352a 8c21 472c 901e d52a
00000310: 6a2a 872b 6c04 012b 7002 c82a d696 2429
00000320: 2ab6 402b d743 042c 47e5 542b cae2 f32a
00000330: b3ad 732b 0dd3 ce29 ae97 0d2a 639f 8d28
00000340: f701 082a 2c1e 292c 6bfc 9c2a 165a 822a
00000350: cb76 2a29 a841 202a ef95 f22a 0953 0a28
00000360: b425 072b ad17 eb2a faa7 6b2b a9bf 582c
00000370: 94f7 602b 358e 3c2b 5b23 202b 6e10 0b2c
00000380: e858 8929 7155 982b 4212 bb29 4d94 0e2c
00000390: 3f95 5b28 24aa 312b ce3b dc28 f0f9 a82a
000003a0: b669 3729 9bd9 b92b 24fa a427 1d2b d82a
000003b0: 44d8 4029 c939 222c 8af5 672a d994 0727
000003c0: 7fde c429 6462 3a2c 2dfb 4729 c453 d52a
000003d0: 13d5 ec29 099b 6f2a b158 032d 8fbc e92a
000003e0: 2757 0629 3432 0b2a 9424 152b 0ea7 0e2a
000003f0: 376e 1429 22bd dd2c befc aa29 43c1 ae2c

exp_avg f4 [120, 40]
-2.4802594e-07 3.5550855e-07 1.6621775e-07 -3.9977877e-07 5.4149785e-07 1.3204325e-06 -9.4813436e-07 1.7863364e-07
-1.6417812e-07 2.6862406e-07 -8.5918003e-07 -3.1370706e-07 -3.5975563e-07 6.770045e-07 -2.6423632e-07 -2.0977793e-06
-6.8533336e-07 -1.2163429e-06 1.1002583e-06 1.5445511e-06 8.405726e-07 6.5444846e-07 4.9341014e-07 7.370969e-07
5.056646e-07 -5.847933e-07 6.811654e-07 -8.5057735e-07 -6.2706374e-07 1.491509e-06 -6.902731e-07 6.4213725e-07
-7.93848e-07 6.2021957e-07 -7.598125e-07 -1.4042564e-06 -2.6868117e-08 2.6945557e-07 5.677494e-08 6.6548876e-07
-3.2969714e-07 -6.749988e-07 -5.5812603e-07 -7.086616e-07 -4.7452437e-07 6.2148956e-07 5.8765345e-08 1.8620591e-08
-1.0603349e-06 3.962713e-07 -4.3232856e-08 3.182824e-08 9.63896e-07 -8.2687296e-07 -3.865676e-08 4.916591e-07
-6.7650785e-07 -1.1294354e-06 -4.119863e-06 6.4759917e-07 -9.600851e-07 4.6070514e-07 -6.5006674e-07 2.0640472e-07
2.6153222e-07 -2.808954e-07 -1.8897061e-06 7.716972e-07 2.1670662e-06 -1.2195604e-06 -4.7031003e-07 -4.1114114e-07
2.0597588e-06 4.1903635e-07 1.8399298e-06 5.75018e-07 1.2215216e-06 1.7633522e-07 -7.147015e-07 -2.5400703e-07
7.861832e-08 -3.8210023e-06 5.6358967e-06 5.56994e-06 7.685039e-07 2.4857518e-06 1.6939892e-06 4.65668e-07
-1.4588294e-06 1.5483195e-07 -4.7233075e-06 -1.7017587e-06 -7.3970255e-06 4.043994e-06 1.4801162e-06 1.0186681e-06
1.8723075e-07 2.0396371e-06 1.0804462e-05 -1.5160064e-06 3.6030842e-06 -4.1575568e-06 9.986735e-07 1.5912271e-06
-4.1557473e-06 8.2298527e-07 -7.1451535e-07 9.002399e-07 -4.4289077e-06 -9.476966e-07 -6.417792e-07 2.792073e-06
-4.848111e-07 1.7524397e-06 -7.992599e-06 -1.4372304e-06 -3.2646287e-06 -7.028788e-06 1.8847938e-07 9.1312995e-07
1.2020272e-06 3.591289e-07 -3.5135847e-07 -1.5116014e-07 1.6123842e-07 4.0382454e-07 -5.854213e-07 3.624798e-07
-4.0631654e-08 -9.0932923e-07 -4.078981e-07 5.190426e-07 -7.609823e-09 -2.2436053e-07 6.254509e-08 -5.192055e-07
4.1483054e-07 7.789183e-07 -9.093864e-07 1.9762018e-07 8.373936e-07 -4.6994361e-07 -1.9141703e-08 -2.997423e-07
1.9546393e-07 -4.4871163e-07 6.6687704e-07 4.4727759e-07 -3.0190904e-07 1.3732578e-07 2.1626062e-07 -2.9933295e-07
1.8425979e-07 -2.1665753e-07 3.2100607e-07 -1.2854922e-07 6.969124e-07 6.8314614e-07 2.7404408e-07 4.2018362e-07
6.2045643e-07 -1.0319525e-06 -1.2017722e-07 3.8267186e-07 1.6613884e-06 1.5292103e-06 7.1041586e-07 1.3374105e-08
-3.034511e-07 7.4960724e-08 -6.10245e-07 1.795356e-07 -1.6524873e-06 -1.8676361e-07 7.866504e-07 -6.9226127e-07
2.0536066e-07 2.0933354e-07 2.9600121e-06 -1.14716364e-07 1.0009065e-06 1.5469529e-07 1.7221379e-07 3.6277262e-07
-1.942173e-06 4.5424517e-07 1.5703914e-06 1.2139013e-07 -1.2921464e-06 4.3994115e-07 -6.548906e-07 4.2256218e-07
-1.0478128e-06 -2.1739008e-07 -2.1185075e-07 -5.2401435e-07 9.51648e-08 -7.3198356e-07 5.028147e-07 -1.5611012e-06
-2.6075052e-06 1.8603226e-06 5.1879863e-07 8.361483e-09 -1.0789738e-06 -3.3074084e-06 -1.1965569e-06 9.2599765e-07
1.930095e-06 1.7980077e-06 1.0118339e-06 -3.3798656e-06 -5.66907e-07 -1.6816048e-07 -7.554986e-07 -1.1751931e-06
-1.0354723e-06 -4.8758704e-07 6.622788e-07 -3.1688437e-06 -2.9351863e-06 4.1555254e-06 2.2560151e-08 1.1826735e-06
-1.142551e-06 -1.2476489e-06 -2.0302969e-06 -1.1383751e-06 -3.4247176e-08 -2.1706567e-06 1.3082744e-06 1.5930507e-06
1.7025942e-06 1.0439372e-06 -5.087452e-07 1.8510364e-06 -1.8923686e-06 -1.0549261e-06 1.1398475e-07 3.404135e-07
5.914718e-07 1.3992001e-06 3.7776607e-07 1.8201749e-07 1.0229761e-06 6.232561e-07 6.872612e-07 8.9026327e-07
1.133851e-06 2.415294e-07 -3.6871114e-07 -1.1011131e-06 -1.3813027e-06 7.9206694e-07 1.3058074e-07 -1.7564392e-07
00000000: 6d28 85b4 b9dc be34 9679 3234 2da1 d6b4
00000010: 735b 1135 b739 b135 4c83 7eb5 71ce 3f34
00000020: f048 30b4 6937 9034 67a2 66b5 926b a8b4
00000030: 7024 c1b4 65bb 3535 5ddc 8db4 93c7 0cb6
00000040: c0f7 37b5 3941 a3b5 96ac 9335 5f4e cf35
00000050: b6a3 6135 5bad 2f35 e372 0435 eadc 4535
00000060: 02bd 0735 b1fa 1cb5 54d9 3635 3b53 64b5
00000070: 7e53 28b5 dc2f c835 354b 39b5 565f 2c35
00000080: d218 55b5 2a7d 2635 ebf5 4bb5 e279 bcb5
00000090: 9dcb e6b2 b1a9 9034 b5d8 7333 0aa4 3235
000000a0: 3b01 b1b4 9031 35b5 21d2 15b5 db3a 3eb5
000000b0: 22c2 feb4 70d4 2635 2e65 7c33 1df3 9f32
000000c0: d450 8eb5 1dbf d434 07af 39b3 85b3 0833
000000d0: 375f 8135 47f6 5db5 8f07 26b3 8efa 0335
000000e0: 4499 35b5 1b97 97b5 5b3d 8ab6 add6 2d35
000000f0: 46dc 80b5 d556 f734 3f80 2eb5 19a0 5d34
00000100: b768 8c34 f8cd 96b4 cfa1 fdb5 a126 4f35
00000110: ea6d 1136 c7af a3b5 eb7e fcb4 cfba dcb4
00000120: 633a 0a36 ebf7 e034 82f3 f635 f05a 1a35
00000130: 2af3 a335 a856 3d34 ead9 3fb5 765e 88b4
00000140: e1d4 a833 2936 80b6 fc1b bd36 6ce5 ba36
00000150: 304b 4e35 e4d0 2636 075d e335 ec00 fa34
00000160: ffcc c3b5 e23f 2634 e77c 9eb6 fc67 e4b5
00000170: f733 f8b6 a5b1 8736 68a8 c635 2bb9 8835
00000180: 9909 4934 b3e0 0836 d044 3537 9579 cbb5
00000190: 84cc 7136 2481 8bb6 290a 8635 2692 d535
000001a0: 9971 8bb6 1eeb 5c35 1fcd 3fb5 04a8 7135
000001b0: 079c 94b6 3765 7eb5 bb46 2cb5 735f 3b36
000001c0: f723 02b5 5f35 eb35 f417 06b7 dce6 c0b5
000001d0: e515 5bb6 d4d8 ebb6 d160 4a34 d01d 7535
000001e0: 5755 a135 4dce c034 57a2 bcb4 954e 22b4
000001f0: e120 2d34 39cd d834 d825 1db5 d89a c234
00000200: fa82 2eb3 a118 74b5 17fd dab4 5654 0b35
00000210: 5bbc 02b2 c1e7 70b4 8750 8633 885f 0bb5
00000220: e0b5 de34 dc16 5135 8f1c 74b5 6c31 5434
00000230: 40c9 6035 8f4c fcb4 0d6d a4b2 45ec a0b4
00000240: b7e0 5134 75e6 f0b4 7103 3335 5d21 f034
00000250: 1016 a2b4 d373 1334 4435 6834 02b4 a0b4
00000260: f2d8 4534 5ea2 68b4 bd56 ac34 5707 0ab4
00000270: 7513 3b35 7261 3735 5520 9334 9995 e134
00000280: 718d 2635 9e81 8ab5 100a 01b4 0572 cd34
00000290: dffc de35 443f cd35 68b3 3e35 f0c3 6532
000002a0: 00ea a2b4 18fa a033 b8cf 23b5 5fc6 4034
000002b0: 08cb ddb5 3189 48b4 342a 5335 d5d3 39b5
000002c0: 1c81 5c34 2ac5 6034 9fa4 4636 fd59 f6b3
000002d0: e356 8635 511a 2634 c4e9 3834 17c3 c234
000002e0: 4756 02b6 fbde f334 3dc6 d235 7757 0234
000002f0: d06d adb5 0d31 ec34 bdcb 2fb5 81dc e234
00000300: 93a2 8cb5 bb6b 69b4 1779 63b4 fea9 0cb5
00000310: 675d cc33 877d 44b5 2af9 0635 0787 d1b5
00000320: 99fc 2eb6 33b0 f935 9243 0b35 31a6 0f32
00000330: 42d1 90b5 d8f4 5db6 6299 a0b5 1392 7835
00000340: c886 0136 1353 f135 59ce 8735 a6d1 62b6
00000350: 8d2d 18b5 9a8f 34b4 78cd 4ab5 54bb 9db5
00000360: 8ffa 8ab5 bae2 02b5 74c7 3135 52a8 54b6
00000370: 1efa 44b6 b16f 8b36 4cca c132 5abc 9e35
00000380: c159 99b5 e474 a7b5 3c40 08b6 45ca 98b5
00000390: 2b17 13b3 99ab 11b6 f797 af35 ced0 d535
000003a0: b184 e435 691d 8c35 b490 08b5 2071 f835
000003b0: 4afd fdb5 fc96 8db5 c7c7 f433 13c2 b634
000003c0: a2c5 1e35 26cc bb35 c6cf ca34 9670 4334
000003d0: 314d 8935 d54d 2735 3b7c 3835 6dfa 6e35
000003e0: d32e 9835 8cab 8134 46f3 c5b4 f5c9 93b5
000003f0: 3365 b9b5 6d9e 5435 c335 0c34 a298 3cb4
